…
r.\n","WARNING:tensorflow:From /usr/local/lib/python3.6/dist-packages/keras/backend/tensorflow_backend.py:3445: calling dropout (from tensorflow.python.ops.nn_ops) with keep_prob is deprecated and will be removed in a future version.\n","Instructions for updating:\n","Please use `rate` instead of `keep_prob`. Rate should be set to `rate = 1 - keep_prob`.\n","_________________________________________________________________\n","Layer (type)                 Output Shape              Param #   \n","=================================================================\n","conv2d_1 (Conv2D)            (None, 122, 30, 32)       320       \n","_________________________________________________________________\n","activation_1 (Activation)    (None, 122, 30, 32)       0         \n","_________________________________________________________________\n","max_pooling2d_1 (MaxPooling2 (None, 61, 15, 32)        0         \n","_________________________________________________________________\n","conv2d_2 (Conv2D)            (None, 59, 13, 64)        18496     \n","_________________________________________________________________\n","activation_2 (Activation)    (None, 59, 13, 64)        0         \n","_________________________________________________________________\n","max_pooling2d_2 (MaxPooling2 (None, 29, 6, 64)         0         \n","_________________________________________________________________\n","conv2d_3 (Conv2D)            (None, 27, 4, 128)        73856     \n","_________________________________________________________________\n","activation_3 (Activation)    (None, 27, 4, 128)        0         \n","_________________________________________________________________\n","dropout_1 (Dropout)          (None, 27, 4, 128)        0         \n","_________________________________________________________________\n","dense_1 (Dense)              (None, 27, 4, 36)         4644      \n","_________________________________________________________________\n","activation_4 (Activation)    (None, 27, 4, 36)         0         \n","_________________________________________________________________\n","flatten_1 (Flatten)          (None, 3888)              0         \n","_________________________________________________________________\n","dense_2 (Dense)              (None, 6)                 23334     \n","_________________________________________________________________\n","activation_5 (Activation)    (None, 6)                 0         \n","=================================================================\n","Total params: 120,650\n","Trainable params: 120,650\n","Non-trainable params: 0\n","_________________________________________________________________\n"],"name":"stdout"}]},{"metadata":{"id":"WOAbTNtKbJsb","colab_type":"code","outputId":"71b45bd3-962e-4870-f642-b3d66f7d8b96","executionInfo":{"status":"ok","timestam
…
